challenges/safari_classifier.pt (torch, 980216 bytes, 8 tensors)

conv1.weight f4 [12, 3, 3, 3]
-0.09819853 0.13912994 -0.03525129 0.19157402 0.19018027 0.025110096 0.020328453 -0.092235215
0.18211982 0.10810459 0.035223983 0.13902605 0.1705576 -0.15943784 -0.0020075345 -0.066942886
-0.12986505 0.1485466 -0.010886517 0.115174495 -0.16350627 -0.09356415 -0.01841059 0.03883941
-0.036540154 0.16779476 -0.10071418 0.17863545 0.10322635 0.02062209 -0.05908936 0.045444254
0.11203033 0.014005114 -0.17447186 -0.104838416 0.16094661 -0.16811566 0.10945115 0.08595048
0.19321434 -0.11474327 -0.015866019 -0.10518898 0.13727027 0.14326937 -0.122819595 -0.06371155
-0.005209245 0.06669616 -0.047672212 0.02289162 -0.05987064 -0.10968594 0.19066216 0.16134356
0.084621735 0.014536024 -0.08394085 -0.14068767 0.032340825 0.10160786 -0.084949225 -0.009979822
0.039875258 0.1205512 -0.07835443 0.13800445 -0.059657365 -0.14635138 -0.04552909 -0.042734772
-0.0755631 -0.18689452 -0.054103214 0.0043114154 -0.017477015 -0.18773566 -0.029267596 -0.11298882
-0.20317449 -0.1909372 0.063066415 -0.18339816 0.038541153 0.00018163538 0.010223875 -0.023794165
0.055430062 -0.14098842 -0.13097556 0.13737465 0.09674272 -0.054335274 -0.00446929 -0.10513622
0.053331032 -0.105801105 -0.013617422 0.15533626 0.0412945 0.082343124 -0.11501483 0.1712965
0.16533925 0.15564221 -0.032982316 0.13173342 -0.07587969 0.17346539 -0.18762562 -0.031803146
-0.10576841 0.061842714 -0.061607573 -0.12181538 -0.079396755 0.082428776 -0.03528437 0.12849545
0.16705902 -0.081251115 0.1437302 0.09375966 0.10202879 0.01695034 -0.03597104 -0.13395296
0.052079156 -0.15040137 -0.046128765 0.009628807 -0.036701694 -0.008004033 0.16473994 -0.16106446
0.08668816 -0.032932658 -0.005301262 0.14735249 0.12936446 0.05097226 0.18046865 0.039431047
-0.19966632 0.05925866 -0.1671559 -0.0015484517 0.10478226 -0.12188407 0.12818122 -0.12178497
0.13128899 -0.19049148 -0.09919342 0.09066675 0.065806255 -0.14930835 -0.021946752 0.06592836
-0.048100464 0.13380669 -0.12245416 -0.07264886 -0.09889805 0.08714243 -0.045463596 0.026544461
0.047286805 -0.06915137 0.042973008 0.16762885 0.10144115 -0.20682366 0.08790332 -0.06960697
-0.12895405 -0.10336423 -0.08285502 -0.20946021 0.03416702 -0.006493204 -0.02335018 0.18040866
-0.07779221 -0.026444692 -0.110124424 0.033850513 -0.0038090525 -0.049966827 -0.006974557 -0.21089801
-0.15156893 0.079411566 -0.06714592 -0.08424765 -0.13544936 0.0056846756 0.15830031 0.15093516
-0.057653666 -0.08668845 -0.102471575 0.14348444 -0.114629455 0.031577908 -0.17262258 0.004807607
0.040791187 -0.21032578 -0.1674743 0.16230638 -0.12886268 -0.018535204 -0.15474382 0.16835777
0.060578022 0.033125013 0.023809347 0.1784198 -0.18068649 0.056655712 -0.051534202 -0.093000576
0.04954163 0.1151052 -0.029712012 -0.09360938 0.036333997 0.19111155 0.10153745 0.010922644
-0.020077862 0.015845653 0.059726562 -0.16227515 0.18239427 0.115603216 0.1580731 -0.039777625
0.16586746 -0.1331131 0.020041885 -0.09181146 -0.15775362 -0.17605463 -0.10295872 0.16002277
-0.025904223 0.005415139 -0.11283473 -0.075592026 -0.06899774 -0.021464381 -0.18488765 0.17106113
00000000: 501c c9bd 1478 0e3e a863 10bd fb2b 443e
00000010: 9ebe 423e b0b3 cd3c db87 a63c d1e5 bcbd
00000020: 9e7d 3a3e f065 dd3d 0647 103d d85c 0e3e
00000030: a7a6 2e3e ac43 23be d790 03bb 5a19 89bd
00000040: 58fb 04be 9a1c 183e 5d5d 32bc 9be0 eb3d
00000050: 306e 27be 909e bfbd ced1 96bc 1316 1f3d
00000060: 21ab 15bd 64d2 2b3e 3c43 cebd 36ec 363e
00000070: 5668 d33d a8ef a83c af07 72bd c123 3a3d
00000080: 2870 e53d b575 653c c0a8 32be 86b5 d6bd
00000090: 30cf 243e 8326 2cbe ed27 e03d ce06 b03d
000000a0: fbd9 453e 85fe eabd 74f9 81bc 526d d7bd
000000b0: 9490 0c3e 35b5 123e d788 fbbd 337b 82bd
000000c0: 50b2 aabb ff97 883d f043 43bd 3587 bb3c
000000d0: eb3a 75bd 06a3 e0bd f13c 433e 3f37 253e
000000e0: 294e ad3d 8128 6e3c 2ee9 abbd 6e10 10be
000000f0: d077 043d c817 d03d dcf9 adbd 6882 23bc
00000100: 3d54 233d 8ce3 f63d 4a78 a0bd 0a51 0d3e
00000110: 485b 74bd 23dd 15be b67c 3abd a80a 2fbd
00000120: d4c0 9abd 4761 3fbe 559b 5dbd c646 8d3b
00000130: f52b 8fbc c73d 40be 99c2 efbc af66 e7bd
00000140: f90c 50be 0b85 43be f728 813d bacc 3bbe
00000150: 54dd 1d3d 6075 3e39 0a82 273c fbeb c2bc
00000160: a20a 633d 455f 10be 751e 06be f1ab 0c3e
00000170: 0c21 c63d aa8e 5ebd 1f73 92bb a951 d7bd
00000180: a471 5a3d 40ae d8bd 9c1b 5fbc 7810 1f3e
00000190: 6c24 293d 83a3 a83d e58c ebbd 5a68 2f3e
000001a0: b14e 293e ac60 1f3e 7718 07bd 20e5 063e
000001b0: d066 9bbd e9a0 313e ee20 40be 0444 02bd
000001c0: 1c9d d8bd c94e 7d3d 3958 7cbd 587a f9bd
000001d0: c49a a2bd 6bd0 a83d 5886 10bd 5094 033e
000001e0: 8511 2b3e fc66 a6bd 022e 133e 1105 c03d
000001f0: 78f4 d03d 70db 8a3c 5f56 13bd f72a 09be
00000200: f450 553d d102 1abe 84f1 3cbd 25c2 1d3c
00000210: 8454 16bd 5923 03bc 96b1 283e 15ee 24be
00000220: 9089 b13d 65e4 06bd 35b6 adbb 92e3 163e
00000230: 1e78 043e 4ac8 503d c6cc 383e 7382 213d
00000240: 5475 4cbe 35b9 723d eb2a 2bbe 6bf5 caba
00000250: 1598 d63d 5b9e f9bd f041 033e 666a f9bd
00000260: 9f70 063e 3310 43be eb25 cbbd 7daf b93d
00000270: 6ec5 863d 4ae4 18be adc9 b3bc 7305 873d
00000280: fe04 45bd 9f04 093e 3fc9 fabd edc8 94bd
00000290: 108b cabd bb77 b23d 0938 3abd c573 d93c
000002a0: cfaf 413d 3c9f 8dbd 7704 303d e6a6 2b3e
000002b0: 61c0 cf3d 95c9 53be a806 b43d 198e 8ebd
000002c0: 880c 04be a0b0 d3bd e5af a9bd bd7c 56be
000002d0: b8f2 0b3d f1c4 d4bb e048 bfbc 0cbd 383e
000002e0: 8651 9fbd 8aa2 d8bc ea88 e1bd d6a6 0a3d
000002f0: 4ca1 79bb 04aa 4cbd d38a e4bb a6f5 57be
00000300: e334 1bbe 88a2 a23d cd83 89bd 088a acbd
00000310: 3db3 0abe 8446 ba3b 7a19 223e bf8e 1a3e
00000320: 4026 6cbd b789 b1bd 9edc d1bd 96ed 123e
00000330: d9c2 eabd d657 013d f9c3 30be 2189 9d3b
00000340: a914 273d a45f 57be 627e 2bbe a533 263e
00000350: 94f4 03be 24d7 97bc 2a75 1ebe fb65 2c3e
00000360: a920 783d 18ae 073d d20b c33c aeb3 363e
00000370: e105 39be d20f 683d 8715 53bd 1677 bebd
00000380: 2aec 4a3d 46bc eb3d 9b66 f3bc 46b6 bfbd
00000390: f5d2 143d bfb2 433e def2 cf3d e4f4 323c
000003a0: 547a a4bc bece 813c d7a3 743d 752b 26be
000003b0: 90c5 3a3e 61c1 ec3d eadd 213e dded 22bd
000003c0: 29d9 293e cd4e 08be e12e a43c a607 bcbd
000003d0: 2a8a 21be aa47 34be 05dc d2bd 02dd 233e
000003e0: 1835 d4bc 7a71 b13b e515 e7bd fecf 9abd
000003f0: b04e 8dbd 12d6 afbc 3053 3dbe a62a 2f3e

conv1.bias f4 [12]
0.14136575 0.0014976437 0.14203063 0.09543201 0.05542067 -0.037505556 0.013250995 0.02032461
0.012802048 0.03276479 0.008294281 0.15178046
00000000: 2fc2 103e 954c c43a 7a70 113e dc71 c33d
00000010: c900 633d 6d9f 19bd b41a 593c cc7f a63c
00000020: aebf 513c 5f34 063d bce4 073c 566c 1b3e

conv2.weight f4 [12, 12, 3, 3]
0.029925738 0.05473839 0.023892635 -0.056132354 -0.07910129 0.060006656 -0.0116355 -0.006922875
-0.08249824 0.05914447 0.10956887 0.08313325 0.076096274 0.07104665 -0.06548409 0.04297581
-0.05674519 -0.072997324 -0.023457665 -0.029841088 0.08059219 0.10617003 -0.0051789717 0.007173344
0.10923633 0.11027148 0.08170297 0.0036535673 -0.05373841 -0.0012416415 0.0011388273 -0.10084514
-0.0983044 -0.06344499 0.07373702 0.026121667 0.0815339 0.068771675 -0.05975889 0.09389372
0.013781854 0.07681706 0.081094556 -0.028700855 0.0089565255 -0.009337553 -0.008119655 0.020612502
0.07049198 -0.0035754186 0.10587845 0.09057456 -0.005246367 -0.05277924 0.039924473 -0.02005677
-0.009861945 -0.039180543 -0.06297497 0.071504235 -0.07100153 0.019164642 -0.00053921435 -0.069480635
-0.04417818 -0.020319872 0.028177015 0.086872086 -0.0061875926 0.009833598 0.027868876 0.0122708585
-0.070792265 -0.0774254 -0.024588812 0.082984775 -0.06373154 -0.01596795 0.0191801 0.064092934
0.07560014 -0.0011713214 0.059009314 0.020553788 0.036272902 -0.045024596 0.099200554 -0.043987237
-0.06447852 0.00076987554 0.08582597 -0.0004035959 -0.052109554 -0.001426331 -0.061809048 -0.09195508
-0.012409995 -0.04524733 0.025154082 0.016670024 0.013061263 0.018836897 0.046051104 -0.01473488
0.012616858 0.06994603 0.010915391 0.06365468 -0.036117315 0.08184626 0.028916711 0.09116173
-0.010185844 0.061315265 0.08162262 0.08005127 0.02244764 -0.02378627 0.043211572 -0.025337147
0.011182529 0.03840375 -0.043873113 -0.07270257 0.08663053 -0.05197891 0.017138222 -0.033919822
0.039332133 0.056095965 -0.015649643 0.008804329 0.05455362 -0.0165443 0.05434198 -0.042605456
-0.0075816577 -0.0225828 -0.06479112 0.029483385 -0.017640049 -0.070391715 -0.0070676 -0.06039771
-0.0638482 0.058188338 -0.07187163 0.0038469194 0.028086552 -0.068036474 -0.059333116 0.10725959
0.10744846 0.06208353 0.032178964 0.058610998 -0.037579887 0.015639544 -0.06732448 -0.07129663
0.06023425 0.016114945 0.041503336 -0.058655784 0.068051726 0.07740169 0.027180845 -0.044946097
0.058166586 0.008448546 0.097821124 0.10110202 0.06617656 -0.08305741 0.045367863 0.07248016
0.047898304 0.042540595 -0.03310268 -0.015915466 -0.015144483 -0.0776667 -0.081099406 0.07601936
-0.019015417 -0.08202021 0.08700103 -0.0003646494 0.01816097 -0.032207042 0.092670664 -0.050692227
0.0060197785 0.06569428 -0.037415523 0.08396944 0.09540277 -0.032733347 -0.08618635 -0.06370482
-0.016893666 -0.08035896 -0.030644864 0.073482476 0.07855067 0.024902843 -0.027567549 0.09357735
-0.03200523 -0.051961236 -0.007771293 0.027300376 -0.025311444 0.070571736 -0.06923226 -0.0107569415
0.063265115 -0.027145227 -0.016973428 0.07740299 -0.032710712 0.073435865 0.0713422 -0.0024578222
-0.076899104 0.03842207 0.09462471 -0.07833871 0.09545447 -0.0112033235 0.043691836 0.08300562
0.06398565 -0.007676143 0.07499426 0.041533854 0.11338557 0.0747867 0.0904011 0.027139418
0.09817579 -0.049872756 0.09005848 0.003943615 -0.10987336 0.0596298 -0.10800234 0.023650605
-0.07587989 0.046950165 -0.037275508 0.052150376 -0.07893629 -0.04276559 0.08102326 0.046833336
00000000: d226 f53c 5d35 603d 7dba c33c 0aeb 65bd
00000010: dbff a1bd 8ac9 753d d3a2 3ebc 49d9 e2bb
00000020: d6f4 a8bd 7941 723d a565 e03d c441 aa3d
00000030: 5dd8 9b3d e880 913d 861c 86bd 6707 303d
00000040: a56d 68bd 9f7f 95bd 4a2a c0bc 4c75 f4bc
00000050: 850d a53d ac6f d93d 5db4 a9bb 5f0e eb3b
00000060: 4cb7 df3d 04d6 e13d e353 a73d b070 6f3b
00000070: cf1c 5cbd 93be a2ba b444 953a e687 cebd
00000080: d153 c9bd 72ef 81bd 6f03 973d 1bfd d53c
00000090: 3ffb a63d 2ad8 8c3d bdc5 74bd 5a4b c03d
000000a0: 49cd 613c 4352 9d3d e714 a63d 0e1e ebbc
000000b0: 64be 123c 89fc 18bc 4d08 05bc 8ddb a83c
000000c0: 195e 903d 9251 6abb cdd6 d83d 287f b93d
000000d0: b7e9 abbb 0b2f 58bd d887 233d 184e a4bc
000000e0: ff93 21bc c77b 20bd 05f9 80bd d070 923d
000000f0: 4069 91bd 2bff 9c3c 105a 0dba dd4b 8ebd
00000100: 2ef4 34bd dc75 a6bc 7cd3 e63c fee9 b13d
00000110: 4ac1 cabb 191d 213c 454d e43c b60b 493c
00000120: 89fb 90bd 3591 9ebd 7a6e c9bc ecf3 a93d
00000130: af85 82bd 38cf 82bc 961f 9d3c 2843 833d
00000140: 3fd4 9a3d 0687 99ba c0b3 713d 6b60 a83c
00000150: e592 143d b66b 38bd a929 cb3d f62b 34bd
00000160: 500d 84bd 79d1 493a 87c5 af3d ba99 d3b9
00000170: d470 55bd baf3 baba 7c2b 7dbd f252 bcbd
00000180: 4b53 4bbc 4455 39bd ef0f ce3c 938f 883c
00000190: e8fe 553c d64f 9a3c 15a0 3c3d 916a 71bc
000001a0: f0b6 4e3c dd3f 8f3d 78d6 323c 635d 823d
000001b0: c0ef 13bd 039f a73d bde2 ec3c 00b3 ba3d
000001c0: 87e2 26bc b725 7b3d c329 a73d ecf1 a33d
000001d0: 1de4 b73c 6cdb c2bc 9efe 303d d98f cfbc
000001e0: ed36 373c 404d 1d3d 4bb4 33bd 16e5 94bd
000001f0: 596b b13d d6e7 54bd 7565 8c3c 83ef 0abd
00000200: bb1a 213d e2c4 653d ae33 80bc 0840 103c
00000210: 9e73 5f3d e987 87bc b295 5e3d 0f83 2ebd
00000220: 8e6f f8bb 90ff b8bc 35b1 84bd 2487 f13c
00000230: dd81 90bc 8829 90bd 5397 e7bb 9763 77bd
00000240: d8c2 82bd e556 6e3d 6f31 93bd 991c 7c3b
00000250: c515 e63c b556 8bbd 4807 73bd eaaa db3d
00000260: f00d dc3d 4d4b 7e3d 17ce 033d 1612 703d
00000270: 5eed 19bd 801e 803c 6be1 89bd f803 92bd
00000280: 30b8 763d 7d03 843c 67ff 293d 0c41 70bd
00000290: b45e 8b3d c784 9e3d 5daa de3c 6619 38bd
000002a0: 1640 6e3d c56b 0a3c 7156 c83d 930e cf3d
000002b0: 9487 873d 011a aabd a7d3 393d 7a70 943d
000002c0: 0331 443d 0c3f 2e3d ad96 07bd 2761 82bc
000002d0: 9120 78bc b80f 9fbd 7217 a6bd 0ab0 9b3d
000002e0: 38c6 9bbc 36fa a7bd 992d b23d 6a2e bfb9
000002f0: 51c6 943c 88eb 03bd 1eca bd3d a7a2 4fbd
00000300: 9041 c53b b98a 863d 0541 19bd 2bf8 ab3d
00000310: 8762 c33d 6713 06bd 7882 b0bd ac77 82bd
00000320: 9664 8abc 3d93 a4bd f00a fbbc fb7d 963d
00000330: 2cdf a03d 0c01 cc3c 57d5 e1bc 7ba5 bf3d
00000340: eb17 03bd 4ed5 54bd 55a6 febb 0aa5 df3c
00000350: f259 cfbc ea87 903d a5c9 8dbd e23d 30bc
00000360: 2491 813d ab5f debc dc0b 8bbc 7585 9e3d
00000370: abfb 05bd 8b65 963d dc1b 923d 6a13 21bb
00000380: 477d 9dbd 7660 1d3d 9aca c13d 0c70 a0bd
00000390: a27d c33d 258e 37bc 36f6 323d dafe a93d
000003a0: e90a 833d 2888 fbbb 9796 993d 671f 2a3d
000003b0: b236 e83d c529 993d 3624 b93d 7c53 de3c
000003c0: 6310 c93d 6047 4cbd 9570 b83d 7139 813b
000003d0: 4905 e1bd 613e 743d 5530 ddbd eabe c13c
000003e0: ea66 9bbd d14e 403d 34ae 18bd a29b 553d
000003f0: 5aa9 a1bd f92a 2fbd 86ef a53d 50d4 3f3d

conv2.bias f4 [12]
-0.013675105 -0.0852339 0.05464953 0.046232615 0.025945662 -0.0192565 -0.035100706 0.07475004
-0.05400721 0.08730775 0.06506109 -0.009321756
00000000: 8c0d 60bc 1c8f aebd 30d8 5f3d 695e 3d3d
00000010: ff8b d43c cfbf 9dbc c2c5 0fbd 8d16 993d
00000020: aa36 5dbd 68ce b23d c03e 853d 47ba 18bc

conv3.weight f4 [24, 12, 3, 3]
-0.018460244 0.0907915 0.084824584 0.028357824 -0.05434566 -0.039953537 0.06798089 -0.05277242
0.013644637 0.0719621 0.010774186 0.013487612 -0.011574715 0.09381055 0.10052761 -0.028237125
0.076352894 -0.017847838 0.08031449 0.11157569 0.038892347 0.0940849 -0.068422966 0.043155327
-0.021523152 0.061902627 0.070294544 0.0045323283 -0.026309336 -0.060728263 -0.058273263 -0.05361004
0.08998242 0.008556808 -0.008348229 0.019645894 -0.045703918 0.0623538 0.064959064 0.060498815
-0.0721755 0.049123142 0.020782638 -0.061271507 -0.07389898 0.07220024 0.110098116 0.0105874315
0.06652296 -0.05021384 0.017456852 -0.022300683 0.0141420495 0.05659303 -0.093627214 -0.038779587
0.051386554 -0.06710133 0.08973948 -0.06162047 -0.08966786 -0.013305236 0.0022615297 0.088467516
-0.014307468 -0.009128913 -0.087074175 -0.08747567 -0.038241513 0.035665832 0.057955123 -0.055645946
0.029781643 -0.09407746 -0.055012796 0.01673826 0.095024884 0.05382258 -0.025080832 0.0825492
-0.0851395 0.03442978 -0.05422271 0.045908753 0.021147586 -0.027817689 -0.092783876 -0.10689506
-0.062390264 0.057478935 0.06805711 -0.06219555 -0.026044507 0.066865936 -0.07147591 0.00066637184
-0.07840464 -0.0052378485 0.02623029 -0.017136088 -0.05003379 -0.0068401922 -0.09160972 0.06470529
-0.057068177 -0.11506408 0.055023164 0.0017502734 0.057660725 -0.035129998 0.040645808 -0.05390306
0.014360336 -0.043321606 -0.0076945876 0.04012998 -0.00995255 0.051153425 -0.02698439 0.09135268
0.082787275 -0.08592915 0.012080223 0.10401864 -0.024717016 0.03366932 -0.08656832 -0.026438538
-0.0459632 0.06637165 0.041826025 0.05108877 -0.042659834 -0.022647724 0.077173464 0.05241853
-0.035880778 0.062876485 0.037092194 -0.06869555 0.001912348 0.015905315 -0.06953698 0.05657081
-0.01145396 2.9021146e-05 0.0809067 0.06060058 -0.09661327 -0.057071805 -0.06526334 -0.032599997
0.06313124 0.08542993 0.07233354 0.08836623 -0.03847429 0.042487398 0.029853152 0.104186356
0.07256767 0.028848635 0.011126243 0.010635 0.08427613 -0.011591799 0.009957057 -0.053146314
-0.005786987 0.09566298 -0.07120829 0.09485055 -0.022289358 0.096965104 0.090174265 0.07278187
-0.046086702 0.0033980813 -0.041996915 0.04191225 0.05283413 -0.031275753 -0.09445517 0.006363485
-0.05678036 -0.072915316 -0.05972965 -0.026777573 -0.009707242 -0.051564835 0.10042653 0.074539706
0.0564146 -0.0802537 -0.08682679 0.0025017194 0.10084538 0.028426748 0.031720538 -0.014052674
-0.035649266 -0.08864143 0.07581615 -0.05972674 -0.08704622 0.036273293 -0.07761792 0.016780121
0.082649074 -0.100324534 0.017444922 -0.014651347 -0.061312627 0.07373101 -0.083715826 -0.024200661
0.031236576 0.026302263 -0.07147176 0.074272275 -0.014618233 -0.035941325 -0.09004469 -0.014532863
0.03043218 0.015412495 0.058776192 -0.06812422 -0.05087444 0.006574211 0.068786964 0.073454045
0.07379517 -0.06705347 0.002235385 0.06826719 0.09992835 -0.03691121 -0.005921876 0.06824143
-0.021530842 -0.016029965 0.048773974 -0.004687378 0.008228579 0.087423526 0.016834028 0.050925136
-0.034470204 0.08021132 0.024109611 0.04251409 -0.064608194 0.06476938 -0.08468602 -0.022273356
00000000: f039 97bc e5f0 b93d 83b8 ad3d ab4e e83c
00000010: 8e99 5ebd 52a6 23bd 9139 8b3d e527 58bd
00000020: c18d 5f3c de60 933d 3686 303c 25fb 5c3c
00000030: e0a3 3dbc bf1f c03d 6be1 cd3d 8b51 e7bc
00000040: e85e 9c3d a135 92bc ec7b a43d cc81 e43d
00000050: 954d 1f3d 96af c03d 5721 8cbd a4c3 303d
00000060: 5251 b0bc 9c8d 7d3d 96f6 8f3d ed83 943b
00000070: ad86 d7bc 33be 78bd f2af 6ebd 3496 5bbd
00000080: b448 b83d db31 0c3c 03c7 08bc 6df0 a03c
00000090: 0834 3bbd b366 7f3d 4209 853d 9bcd 773d
000000a0: c0d0 93bd 5935 493d 5a40 aa3c d5f7 7abd
000000b0: 5958 97bd b8dd 933d 1f7b e13d e876 2d3c
000000c0: 313d 883d 07ad 4dbd ac01 8f3c ecaf b6bc
000000d0: 0eb4 673c 18ce 673d a0bf bfbd 58d7 1ebd
000000e0: b57a 523d 6c6c 89bd 55c9 b73d bf65 7cbd
000000f0: c8a3 b7bd 34fe 59bc 2c36 143b 752e b53d
00000100: df69 6abc 7091 15bc f253 b2bd 7226 b3bd
00000110: 22a3 1cbd 5616 123d 5a62 6d3d 01ed 63bd
00000120: a2f8 f33c afab c0bd 1955 61bd ad1e 893c
00000130: 689c c23d 1175 5c3d 5176 cdbc 8e0f a93d
00000140: 9e5d aebd 3e06 0d3d a218 5ebd d10a 3c3d
00000150: b43d ad3c ece1 e3bc 7905 bebd cceb dabd
00000160: ef8c 7fbd 086f 6b3d 8761 8b3d c3c0 7ebd
00000170: 4a5b d5bc 02f1 883d f661 92bd 75af 2e3a
00000180: 9d92 a0bd 42a2 abbb e8e0 d63c fb60 8cbc
00000190: 3bf0 4cbd b123 e0bb e09d bbbd 3584 843d
000001a0: 52c0 69bd b7a6 ebbd f85f 613d 6e69 e53a
000001b0: a72d 6c3d 79e4 0fbd 387c 263d 74c9 5cbd
000001c0: 9d47 6b3c ff71 31bd e122 fcbb 555f 243d
000001d0: 0510 23bc 4186 513d 5e0e ddbc 1d17 bb3d
000001e0: 608c a93d 9ffb afbd 21ec 453c ba07 d53d
000001f0: 577b cabc d7e8 093d bb4a b1bd a295 d8bc
00000200: e943 3cbd dced 873d c451 2b3d 7542 513d
00000210: 14bc 2ebd b887 b9bc 1f0d 9e3d d0b4 563d
00000220: b9f7 12bd 63c5 803d fced 173d 41b0 8cbd
00000230: c0a7 fa3a dd4b 823c 6769 8ebd cbb6 673d
00000240: 64a9 3bbc 7072 f337 69b2 a53d 5038 783d
00000250: 2edd c5bd 20c4 69bd c9a8 85bd 9387 05bd
00000260: f44a 813d e3f5 ae3d 9b23 943d 5bf9 b43d
00000270: 3897 1dbd 4407 2e3d 998e f43c a85f d53d
00000280: 5c9e 943d f953 ec3c d84a 363c 6c3e 2e3c
00000290: f798 ac3d 87eb 3dbc ed22 233c f3af 59bd
000002a0: c4a0 bdbb f4ea c33d a7d5 91bd 0141 c23d
000002b0: 2c98 b6bc a495 c63d 49ad b83d a90e 953d
000002c0: 69c5 3cbd 58b2 5e3b f504 2cbd 2eac 2b3d
000002d0: 9a68 583d 011b 00bd b671 c1bd c884 d03b
000002e0: 8692 68bd a054 95bd 14a7 74bd a45c dbbc
000002f0: 200b 1fbc a635 53bd 6dac cd3d 46a8 983d
00000300: ff12 673d 0d5c a4bd 3ed2 b1bd e3f3 233b
00000310: 0688 ce3d 36df e83c 65ed 013d 303d 66bc
00000320: f704 12bd a389 b5bd 7f45 9b3d 07a4 74bd
00000330: 4a45 b2bd 4e93 143d 25f6 9ebd 7776 893c
00000340: eb43 a93d f376 cdbd a7e8 8e3c 340c 70bc
00000350: f322 7bbd 4900 973d 3473 abbd 7740 c6bc
00000360: d9e3 ff3c d877 d73c c95f 92bd 101c 983d
00000370: 5081 6fbc 3637 13bd 5a69 b8bd 3f1b 6ebc
00000380: e84c f93c b084 7c3c 4ebf 703d b684 8bbd
00000390: b861 50bd 7b6c d73b 2ee0 8c3d 136f 963d
000003a0: ec21 973d 5453 89bd 897f 123b abcf 8b3d
000003b0: 3ca7 cc3d 3530 17bd 4c0c c2bb 2ac2 8b3d
000003c0: 7361 b0bc 4651 83bc 38c7 473d 9498 99bb
000003d0: 29d1 063c 1b0b b33d 84e7 893c e096 503d
000003e0: a130 0dbd d545 a43d 8581 c53c 4123 2e3d
000003f0: 4d51 84bd cfa5 843d dd6f adbd 9d76 b6bc

conv3.bias f4 [24]
0.02182037 -0.046550244 0.08240721 0.04975942 -0.061597593 -0.015059035 -0.07934477 -0.045601614
-0.04211706 0.078022294 -0.019537421 0.0031959587 0.052955016 -0.014997591 0.078485824 -0.033974778
-0.0041408497 0.059920453 0.075349726 -0.05941482 -0.04991528 -0.013792253 -0.09774999 0.011499381
00000000: a2c0 b23c 78ab 3ebd 1cc5 a83d 89d0 4b3d
00000010: c24d 7cbd 2cba 76bc 837f a2bd c2c8 3abd
00000020: f082 2cbd 27ca 9f3d f10c a0bc 4a73 513b
00000030: 5ce7 583d 75b8 75bc 2dbd a03d 2329 0bbd
00000040: f7af 87bb 266f 753d f550 9a3d f45c 73bd
00000050: f773 4cbd e7f8 61bc 2631 c8bd e667 3c3c

fc.weight f4 [4, 60000]
0.012832082 0.007377721 0.0054576187 0.008726819 0.0057226317 0.0069993366 0.0025125972 0.002290259
0.0068187676 0.008292537 0.006346716 0.0065878206 0.0075473394 0.0021954603 0.0062263794 0.0067681605
0.008397931 0.005710743 0.007089332 0.009607662 0.0037914368 0.0066143246 0.0035355282 0.008018985
0.008747316 0.004545091 0.0054145474 0.0066834586 0.006127949 0.005292149 0.00804685 0.008866844
0.0054624192 0.007522257 0.0075669973 0.0077753514 0.00614994 0.00870824 0.0073114443 0.00787427
0.004899677 0.008027601 0.0027949642 0.0041250396 0.0024859025 0.006222128 0.0054414324 0.009732469
0.0074818423 0.012673335 -0.0020003256 0.015082902 0.011596196 0.006181791 0.008016356 0.007207073
0.0062214336 0.007684751 -0.0017456451 0.0027510386 -7.68055e-05 0.0037841394 0.0036122766 0.0008401908
0.0026305704 0.010432584 0.013383251 0.0062764846 0.0047398186 0.012785865 0.009394564 0.010184864
0.009753732 0.008329268 -0.001000684 0.0090020215 0.0035001046 0.0062147914 0.0047248444 0.008386128
0.010922805 0.008789112 0.0051635713 0.0027065685 0.009575639 0.009535597 0.0020055657 0.004716039
0.0046649287 0.0054767593 0.010732392 0.0037393272 0.0050594467 0.0031386982 0.006999333 0.0071400274
0.011506566 0.0072657606 0.011341588 0.0065656714 -0.0028261202 0.0021194795 0.008892393 0.0020996614
0.0052031362 -0.004375581 0.0009868977 0.0048708566 0.0045081633 -0.0030011786 0.002118488 0.004594398
0.003213867 0.0036292272 -0.0022040186 0.0064093936 0.0058978703 0.0027121343 -0.005005014 0.0055022975
0.0072649918 0.0047297077 0.00083726563 -0.0012793771 0.0010344489 0.0044566495 0.005913639 0.004559647
-2.4447472e-05 -0.0007828751 0.0036304009 0.005523579 0.0061431522 -0.003919244 0.0015455983 0.0042347796
-0.006369447 0.0058069695 -0.0017065142 0.0026399093 0.0020940602 0.003603687 0.0075712535 0.00047790766
-0.0013316667 0.0077547207 0.00573613 -0.0029822458 0.009738602 0.013940121 0.0007976344 0.0034444379
0.002703358 0.004989959 0.0020899773 0.002544185 -0.0034506097 0.0014443797 0.0056384825 -0.0022784355
-0.00039277665 0.0027152323 0.0007164304 -0.00123515 -0.0008261212 -0.002268217 -0.0067505436 0.00026509556
-8.911362e-05 0.0043148566 0.006059895 0.00024072157 0.0022685123 0.0047681504 0.0067509105 0.0038376902
-0.0017610614 0.006162936 0.0010109779 0.004128844 0.0036528325 -0.0018943702 0.0024573335 0.0043363324
0.00061831495 0.0028586912 -8.465534e-05 -0.0009646998 0.0009658862 0.003279457 0.0013570199 -0.0017392555
0.0050114533 0.0015395449 0.0035262401 -0.0011400502 0.00060522585 0.0013338611 0.0067541404 0.007817441
0.0030718744 0.009187526 -0.0022416878 0.0006543975 0.0018713617 -0.00012054972 0.0015760066 0.0010729634
0.0053751357 -0.0041206116 0.001579246 0.0025287746 -0.002322061 0.00034410652 0.00022848824 -0.0062849643
0.0022883178 0.003999371 0.0075866147 0.0041209725 0.004185346 -3.707337e-05 -0.00033882764 0.007498536
0.0040902756 0.002825797 7.4936914e-05 0.00041635073 0.0026453484 0.001404513 0.0015473268 0.0028623356
0.005095643 0.0039452496 0.0021384372 0.0014191837 0.0028417483 -0.005158237 -0.007349423 -0.0033301455
0.0019717468 0.0008299406 0.00071369414 0.007778305 0.0082856165 0.004644163 -0.0008650851 0.005694719
0.004977849 0.01069948 0.0031872434 0.011136619 0.0014368043 0.0012315067 0.0002448754 0.003668027
00000000: a73d 523c cfc0 f13b d3d5 b23b effa 0e3c
00000010: ea84 bb3b b15a e53b 63aa 243b 2c18 163b
00000020: f86f df3b 6cdd 073c 1df8 cf3b a5de d73b
00000030: ac4f f73b b6e1 0f3b a806 cc3b 72c7 dd3b
00000040: 7a97 093c 2f21 bb3b a14d e83b 7569 1d3c
00000050: c179 783b fabc d83b 52b4 673b 1062 033c
00000060: e750 0f3c fdee 943b 846c b13b ea00 db3b
00000070: f6cc c83b c369 ad3b efd6 033c 3d46 113c
00000080: 18fe b23b 447d f63b 93f4 f73b 60c8 fe3b
00000090: 7085 c93b 02ad 0e3c d794 ef3b 1503 013c
000000a0: 788d a03b 3386 033c b82b 373b 572b 873b
000000b0: 86ea 223b fee2 cb3b 0b4e b23b ef74 1f3c
000000c0: 3e2a f53b d2a3 4f3c e517 03bb 471e 773c
000000d0: f9fd 3d3c 9f90 ca3b 0957 033c 4f29 ec3b
000000e0: 2bdd cb3b 5dd0 fb3b 21ce e4ba c54a 343b
000000f0: a412 a1b8 53ff 773b f2bb 6c3b 4040 5c3a
00000100: a665 2c3b 6eed 2a3c 6c45 5b3c f8aa cd3b
00000110: 7b50 9b3b ce7b 513c a8eb 193c 6ade 263c
00000120: 1ece 1f3c 7b77 083c 6229 83ba 377d 133c
00000130: 0362 653b 73a5 cb3b ded2 9a3b f865 093c
00000140: 91f5 323c 3500 103c 2d33 a93b af60 313b
00000150: 24e3 1c3c 313b 1c3c cf6f 033b 0189 9a3b
00000160: 42dc 983b 6376 b33b ead6 2f3c 800f 753b
00000170: b7c9 a53b 9eb2 4d3b a95a e53b e4f6 e93b
00000180: 0986 3c3c 9e15 ee3b 11d2 393c d824 d73b
00000190: 6e36 39bb f7e6 0a3b 66b1 113c 799a 093b
000001a0: 127f aa3b 0961 8fbb cb5a 813a b59b 9f3b
000001b0: 37b9 933b 6caf 44bb 55d6 0a3b 9b8c 963b
000001c0: be9f 523b 54d8 6d3b 4c71 10bb e405 d23b
000001d0: ec42 c13b 10be 313b 1a01 a4bb 9e4c b43b
000001e0: 2b0f ee3b aafb 9a3b f27b 5b3a c6b0 a7ba
000001f0: 5896 873a 1609 923b 33c7 c13b 1769 953b
00000200: 8c14 cdb7 dc39 4dba 05ec 6d3b 24ff b43b
00000210: 7f4c c93b 006d 80bb ac95 ca3a e8c3 8a3b
00000220: cbb6 d0bb 6448 be3b 1dad dfba 5402 2d3b
00000230: 803c 093b d62b 6c3b 4718 f83b ae8f fa39
00000240: 528b aeba 501b fe3b 25f6 bb3b c871 43bb
00000250: a88e 1f3c 1b65 643c 5718 513a 14bc 613b
00000260: d22a 313b cf82 a33b 00f8 083b 57bc 263b
00000270: a023 62bb 5751 bd3a 05c3 b83b ce51 15bb
00000280: 97ed cdb9 0af2 313b d5ce 3b3a c2e4 a1ba
00000290: 0e90 58ba 5ea6 14bb aa33 ddbb 86fc 8a39
000002a0: 83e2 bab8 a463 8d3b 1592 c63b 346a 7c39
000002b0: 52ab 143b 253e 9c3b be36 dd3b c281 7b3b
000002c0: 6ad3 e6ba 74f2 c93b ca82 843a 414b 873b
000002d0: 5c64 6f3b 844c f8ba 370b 213b cb17 8e3b
000002e0: 6a16 223a e158 3b3b fd88 b1b8 e8e3 7cba
000002f0: 8733 7d3a 29ec 563b 08de b13a bbf7 e3ba
00000300: 1e37 a43b 8eca c93a 7e18 673b bd6d 95ba
00000310: 05a8 1e3a f4d4 ae3a d651 dd3b b914 003c
00000320: 8051 493b 4787 163c 48e9 12bb df8b 2b3a
00000330: 7b48 f53a a3cf fcb8 0292 ce3a ada2 8c3a
00000340: e821 b03b 3206 87bb b4fe ce3a ccb9 253b
00000350: b82d 18bb 3269 b439 5896 6f39 1af2 cdbb
00000360: 9af7 153b 280d 833b 2399 f83b 3909 873b
00000370: 3a25 893b 3a7f 1bb8 ada4 b1b9 47b6 f53b
00000380: b807 863b 0231 393b 7327 9d38 a649 da39
00000390: 955d 2d3b a317 b83a accf ca3a 0696 3b3b
000003a0: 5af9 a63b 2747 813b 0625 0c3b e703 ba3a
000003b0: a03c 3a3b 6e06 a9bb 6ed3 f0bb 923e 5abb
000003c0: 6c38 013b 5f90 593a 3417 3b3a 27e1 fe3b
000003d0: 65c0 073c 102e 983b e1c6 62ba c49a ba3b
000003e0: 391d a33b df4c 2f3c 12e1 503b 5e76 363c
000003f0: 2753 bc3a 826a a13a 9f62 8039 4863 703b

fc.bias f4 [4]
0.0024178503 0.0019940734 -0.0023784817 -0.006976616
00000000: cc74 1e3b 00af 023b 4de0 1bbb 199c e4bb
